assets/automobile.tflite (tflite, 20832 bytes, 5 tensors)

sequential_3/dense_10/MatMul/ReadVariableOp/transpose f4 [64, 64]
00000000: 13e4 0b3d 3d67 a13e 5b09 683e cd2f aa3e
00000010: 5004 353d 935c 94bd 73d8 073d f0a8 083e
00000020: 847e 5e3c 3cd6 b53d 4d57 783e 8d9a 383e
00000030: e467 93bd e619 963e 9b4e 77bd 025d 7bbd
00000040: 4a83 363e c04d 88be 6979 0d3d 86e1 803e
00000050: 38bf 6c3e 6b68 0c3e 2d9a 38bd d847 9e3e
00000060: 0609 9e3e eedc f93b b1dc 3b3e 1b89 633e
00000070: 1feb b03e 9f7e b1bd 2f64 3b3e fa71 9f3d
00000080: eaeb 1f3b 6bbb 193e 73cc 4a3e 8e83 5fbc
00000090: 0346 1d3d 6501 8c3d 49e0 0b3d 5dd7 a03d
000000a0: df62 ae3e e7e9 fcbd 278d 1d3e 76d8 00bd
000000b0: 9e38 e33e eb64 5f3d ca36 073e a8f1 793e
000000c0: c364 00be e95d ab3e 6137 963d 8036 553e
000000d0: 8de7 fe3d 2760 09bd ff13 553e 61f3 01ba
000000e0: 3bc3 803e f7f8 193e 4f2c 51bc da55 1a3c
000000f0: ffd6 763e 127e 2abd d98f af3e b1b6 84bd
00000100: 521c 7b3e 68f7 483e 30e0 443d 7db3 90bd
00000110: 21a3 8ebd c811 853d 9571 2a3e b623 6dbc
00000120: 32e6 a53d 3ea6 65bd 274c 15be 125a 0abd
00000130: c529 43bc 8328 373c a72e ef3d e66e e63d
00000140: c42a cfbc bcd0 a5be 5d13 adbd 23af ec3d
00000150: c2b5 093d d781 fa3d f675 813e b3c2 3d3e
00000160: 8dbe 4b3e f7ba 873d 469f 8e3e 2cc5 92bd
00000170: 824b a63e 9d75 22bd 1c70 f03d ec4c 893e
00000180: 16c5 4c3e 0a01 343e 534d 0a3e 2121 c9bc
00000190: c998 1abe f991 663e e634 8dbd 0453 12bc
000001a0: 5429 a53e 242f 8c3e a91e 2c3e 8cc4 fc3c
000001b0: 1f39 e13d 267c 9f3e cc65 4f3e 9a3c 1c3e
000001c0: c099 863e 0fa6 a73e e838 223e 2f55 513d
000001d0: 8545 e1bd a7ba 8f3e 8554 ba3d 5132 9a3d
000001e0: 6de6 6bbd c3cd 2c3e 5cd5 993e b79b 483e
000001f0: f6e1 9f3e 7aa9 b5bd 22cd d43d a055 b8bd
00000200: 978d 0fbe af9a b03d 54b5 f4bb a8db 35be
00000210: f59e 8d3d e8a8 b2bd 5e5c 183e 1384 a63c
00000220: 235d 5abd 9dbe debd 7144 bcbd 84f9 0e3e
00000230: cdd4 9a3d 7275 023e b1be 96bd b071 84bd
00000240: 825d 08be daf6 1f3e c004 1dbe f944 e63d
00000250: 7b74 c6bc e6a1 b8bc 4138 be3d 9908 193e
00000260: 92f0 9ebd ebdc d63d c2ee 913d 8841 e8bc
00000270: 0657 123c 77d5 b1bd 9b99 083e 0750 983c
00000280: dbee af3d 9244 23be 0786 5cbe 0acc 1ebe
00000290: e299 c03d ee1c 273e 1bb3 84be db86 ab3d
000002a0: f5bc 1f3d d2c9 363d 9398 82be d878 3c3e
000002b0: 68c7 683d 3c07 493d 52e9 8fbc 2272 cdbd
000002c0: 883a 423c fc6f e23d 1eb5 33bd 4e60 fc3c
000002d0: 980b 2d3e 9773 37be 8fac 0cbd 31e8 3bbd
000002e0: 9391 433d 8f82 3abe f508 3bbe ffef 753b
000002f0: 9870 6bbe ea8a 56be 49a4 8fbd e07b 0fbe
00000300: c15b 2e3e 7336 d93d 28e7 703e 3f36 853e
00000310: 7174 dfbd cf60 a53d 0d85 c53e 7ed2 333d
00000320: 6f82 62bd 41ad 0b3e 7400 47bd 43fe f13d
00000330: 70b3 443d e57b 4cbc 0f52 803d de50 2a3e
00000340: f02f 19bd 4761 1ebe 5630 98bd b17f 83bd
00000350: b5ce 043d e16a 7c3e b33a 073e 0a31 9f3e
00000360: 80e2 ac3d 39b3 f83d 5266 943c be98 8c3e
00000370: 520c b93e 7abe 1d3e 1c60 293e d214 adbd
00000380: c8b1 673e 39ed 703e 1238 463e 6beb 993e
00000390: bb2f 423d 1a26 913d c595 fabd c552 8f3e
000003a0: 8efd 9f3e c62e 1f3d 8489 2f3e 2c26 293b
000003b0: 7908 c93e 02c7 b7bd 990a 643d 034d 743c
000003c0: d40a ebbc 95be 023d d7ee 333d 5fc1 4f3e
000003d0: 6e05 843c b80f 293e f75c 9c3e 69bb 293d
000003e0: 361b be3d 60ac 983c 5ec8 9c3e 33e6 893e
000003f0: 08f4 aabd f65b 23bd 88dc 793c 2d97 163e
0.034153055 0.31524077 0.22659819 0.33239594 0.044193566 -0.0724422 0.033165406 0.13345695
0.013579968 0.088787526 0.24252053 0.18027706 -0.0719755 0.29316634 -0.0603777 -0.061367996
0.1782352 -0.2662182 0.034539614 0.2517206 0.23119819 0.13711707 -0.04506891 0.30914187
0.3086626 0.007625214 0.18345906 0.2222027 0.34554383 -0.08666729 0.18299936 0.07785411
0.002440209 0.150129 0.19804554 -0.013642205 0.038396847 0.068362035 0.034149442 0.07853577
0.34059808 -0.12349301 0.15385877 -0.031456433 0.44379133 0.054539602 0.13204494 0.24408591
-0.12538438 0.33470085 0.073347814 0.20821571 0.124465086 -0.033538964 0.20808409 -0.0004957226
0.2514895 0.15036379 -0.012766912 0.009419883 0.24105452 -0.041624136 0.34289435 -0.06480158
0.24522522 0.19625628 0.048065364 -0.07065485 -0.06964708 0.06497532 0.1664489 -0.014473846
0.08100547 -0.056066744 -0.14579831 -0.033777304 -0.011911814 0.011179092 0.1167882 0.11251621
-0.025288947 -0.32385814 -0.08450959 0.11556842 0.033620603 0.12231796 0.2528531 0.18531303
0.19896908 0.066274576 0.2785589 -0.07166514 0.32479483 -0.039662946 0.11740133 0.268165
0.19997057 0.17578521 0.1350606 -0.02455193 -0.15097345 0.22516622 -0.06894855 -0.008930925
0.32258093 0.27379715 0.16808571 0.03085544 0.10997223 0.31149405 0.20253676 0.15257493
0.26289177 0.3274388 0.1584202 0.051106628 -0.10999588 0.28072092 0.09098152 0.07529128
-0.057592798 0.16875367 0.30045593 0.1959065 0.31227082 -0.08870216 0.103906885 -0.09000707
-0.14018856 0.086232536 -0.007467905 -0.17759573 0.06915084 -0.087236226 0.14878985 0.02032665
-0.05331148 -0.108762 -0.09192742 0.1396237 0.0756012 0.12740114 -0.0736059 -0.06466997
-0.1331692 0.1562151 -0.15333843 0.11243624 -0.024225464 -0.022538137 0.09288073 0.14944686
-0.07760729 0.104913555 0.071256176 -0.02835156 0.008931881 -0.08683293 0.13339846 0.018592848
0.0859048 -0.15944126 -0.21535502 -0.15507522 0.09404351 0.1631963 -0.25917897 0.08375331
0.038998563 0.044626065 -0.2550703 0.18405473 0.056830794 0.049079165 -0.01756731 -0.10031535
0.011854775 0.110565156 -0.0438739 0.03080764 0.16898954 -0.17915188 -0.034344252 -0.04587573
0.047746252 -0.18213867 -0.18265136 0.0037527082 -0.2299217 -0.20951429 -0.07013757 -0.14012098
0.17027189 0.106060885 0.23525679 0.2601795 -0.10910881 0.080751054 0.38578072 0.043901913
-0.055300172 0.1364031 -0.048584417 0.11816075 0.048022687 -0.012480711 0.062656514 0.16632411
-0.037399232 -0.15466796 -0.07431094 -0.064208396 0.032423694 0.24650146 0.13205986 0.310921
0.08441639 0.12143559 0.018115196 0.27460283 0.36142212 0.15404692 0.16540569 -0.08451237
0.22626412 0.23527993 0.19357327 0.30062422 0.0474088 0.070873454 -0.122355975 0.27992836
0.31248134 0.038862966 0.17142302 0.0025810106 0.39264277 -0.089735046 0.05567417 0.014910939
-0.028691687 0.031920034 0.043928947 0.20288609 0.01611587 0.16509902 0.30539677 0.041438494
0.09282534 0.018636882 0.30621618 0.2693344 -0.083473265 -0.039882623 0.015250333 0.14706106

sequential_3/dense_10/MatMul_bias f4 [64]
00000000: 54cb 043e 088f 033e 3508 47bd 38c3 0b3e
00000010: d323 033e 0efd 313d 0465 c2bc 30dc fe3d
00000020: 4016 023e a585 073e 4544 113e 326d edba
00000030: b5ae 933c cb83 073e 40e5 013e 28ff 1ebd
00000040: 0dca 033e cf76 ab3c 5099 52bc d5ef 033e
00000050: 7621 113e 5f6c 033e d138 01bd 89ff 873c
00000060: 71b2 55bd 07fc 073e 40ac 083e 9d45 fb3d
00000070: 7ee7 063e 6045 043e 8704 0f3e b85d 3439
00000080: cc3a 103e e749 053e 8a4b 3d3c fc54 0c3e
00000090: 0edf 93bc bb88 003e add6 033e c49f 0a3e
000000a0: 87a6 483c 3d4f 033e 48ad f2bb 808e ff3d
000000b0: 3304 093e 6441 3abd c845 033e 8b9c 0b3e
000000c0: 3ac7 f0bc 1d3f 0ebd 010b 9ebc abd6 053e
000000d0: 18c0 013e 0f62 043e b4cf 19bc 6b74 9fbc
000000e0: f000 043e 8259 b6bc 030f 023e bb96 ff3d
000000f0: a602 b53d 534e 033e 2972 fd3d b6fe 1abd
0.12968189 0.12847531 -0.04859181 0.13648689 0.12806635 0.043454222 -0.023729809 0.12444341
0.127038 0.13234575 0.14186199 -0.0018114208 0.018027643 0.13233869 0.12685108 -0.038817555
0.12870045 0.020930676 -0.012853935 0.12884457 0.1417292 0.12834309 -0.031548325 0.01660134
-0.052172128 0.13279735 0.13346958 0.12269137 0.13174245 0.1291709 0.13966571 0.0001720105
0.14084929 0.13016473 0.011553654 0.13704294 -0.018050697 0.12552159 0.12874861 0.13537508
0.012246734 0.12823196 -0.0074059106 0.124783516 0.13380508 -0.045472518 0.12819588 0.13633935
-0.029391874 -0.03472816 -0.019292356 0.1307017 0.12670934 0.12928031 -0.009387899 -0.019464692
0.12890983 -0.022259478 0.12701039 0.124799214 0.08838396 0.12822847 0.1237529 -0.037840568

sequential_3/dense_11/MatMul/ReadVariableOp/transpose f4 [1, 64]
00000000: 5061 6f3e 460c d33e 50e3 0bbe 6b07 133e
00000010: 774f 5d3e 35e8 e4be 47c0 d5be 77d2 8a3e
00000020: c398 863e c181 533e 897d 263e 058e b0be
00000030: 82ee 08bf c7cc 773e 01cb 803e 2c92 4bbc
00000040: b63a 523e b93a cabe 7220 31be 227d d93e
00000050: 8c1c 063e 2a6c 7b3e 8d76 10be 6437 22bf
00000060: 61d9 33be 012a 733e dc8f d43e 78f2 cb3e
00000070: 3db0 203e 2b8f 9f3e d6a4 013e 249a 99be
00000080: ce01 053e 73a2 953e ea31 c4be af15 1d3e
00000090: c6a0 a9bd 00cb c73e 43d2 343e 3cf0 6e3e
000000a0: 092b 743e ae4e dd3d f299 82bc 6380 b03e
000000b0: eab5 4d3e 7ddb cdbd ff93 b83e 2153 943e
000000c0: 7650 c3bd 9d0b 15be 83b7 f3be fed5 553e
000000d0: dd41 c73e 31a6 5b3e edb5 51be 6216 3bbd
000000e0: df0a 073e 10cf 6dbe 103b c03e e419 aa3e
000000f0: 8251 d73d 53fa 273e 1ed3 d63e 60f9 8cbe
0.23376966 0.412203 -0.13660932 0.14358298 0.21612345 -0.4470841 -0.41748258 0.27113697
0.26288423 0.20654966 0.16258825 -0.34483352 -0.53488934 0.2419921 0.2515488 -0.012424987
0.20530209 -0.39497927 -0.17297533 0.4247828 0.13096827 0.2455298 -0.14107724 -0.6336577
-0.17563392 0.23746492 0.41516006 0.39833426 0.1569223 0.31163916 0.12660536 -0.30000412
0.1298897 0.292255 -0.3831933 0.15340303 -0.08282618 0.39022064 0.17658333 0.2333383
0.23844542 0.108060226 -0.015942547 0.3447295 0.20088926 -0.1005163 0.36050412 0.28969672
-0.09536831 -0.14555211 -0.47600946 0.20882413 0.38917437 0.21450116 -0.20479555 -0.045675643
0.1318774 -0.2322352 0.3754506 0.33222878 0.10513593 0.16404085 0.41957945 -0.27534008

sequential_3/dense_9/MatMul/ReadVariableOp/transpose f4 [64, 9]
00000000: b024 0bbd 311e 663d 1405 17be 231f eb3c
00000010: 5bb7 28be a22c 8b3e 606c 523e a589 973e
00000020: 8b89 d4be 7113 20bd fc80 00bd 2019 143d
00000030: 3b9c 5abe 7e4c 973d 1241 9f3e c29b 9ebe
00000040: 2b29 8a3d f9aa 7cbe 897a f5bc cdba 803d
00000050: 6cb8 79be d067 abbd 8fa1 333e 2627 5cbe
00000060: 4d52 613d 93ee 2f3e 394a b7be 226b db3c
00000070: 7f56 abbe d8af 07be d063 513d bec7 33bb
00000080: c3f5 87be 68df cabd cafa 7fbd 864b d8be
00000090: 41fa 873e 41c4 543d a982 1fbc acee bc3e
000000a0: fe75 9e3e 2c08 6a3d 2c17 ecbc 467f afbc
000000b0: 839d 6abe 911c 283e 750b b7bd 6a7d 5cbe
000000c0: ab8c 263e 4009 82be 95f5 943d 911f 33be
000000d0: 7475 e4bc e05b c1be 4f21 e23b 9aa0 a6be
000000e0: 2147 b73d 8de2 c4bb 40d3 08be 2954 4ebe
000000f0: e76c 8a3e 4a28 633d f486 36be 5f0a 64bd
00000100: bd10 133e bf51 83be 7980 34be 0cca bbbe
00000110: 8417 373d 4028 a43e 7f95 b4be 2342 42be
00000120: 8b2b 433d ce1d 323c 2143 273e ddeb 3e3e
00000130: ce58 e2bd fec5 dabd 159d ac3e 4e2b ad3d
00000140: e0e6 803d 7f91 803e f68b 823e a5ea b73e
00000150: dc4c 4f3e dcbc 74be 59d1 f8be 1c16 b13d
00000160: 2804 95be be55 293e 2854 0d3e 3130 053e
00000170: ac6f a0be f3e3 943e ec3f e13d cdf6 983d
00000180: c6c7 4fbe e91f 933e 5f63 9fbe 426c 383e
00000190: b7d6 20bd 62f7 c93d a1ed acbe f2f3 123e
000001a0: dc2a e23d 9a70 84be 6ad3 95be 080e 4f3e
000001b0: 0d99 8bbe 5abe 02be 7760 3d3e b3dc 0a3e
000001c0: 5b60 0bbd cc6b e6bd cc3b fc3d a976 ff3d
000001d0: a855 84be 4aff 883e 8d9f 99bd a9cd ae3b
000001e0: 0971 c1bd 4b9f c53d e6c6 e63c 33da afbe
000001f0: 1a53 893e 4f9c 663d eb3e 1d3e 8057 773e
00000200: d9a1 bd3d 106c a13e 1ede 30be 5ee4 0ebe
00000210: be49 b63e fd9a ae3c 75ee a2be 2edd b93d
00000220: e183 d93d 3414 503e a943 4cbe dd87 8cbe
00000230: be2e 893e 9127 aa3e 6ab2 2bbe 9a4c 17be
00000240: 486f 623e 0e56 4bbe 7d82 ccbd 3b38 e0bd
00000250: 0e75 a3be 1c45 783e a8f7 ef3d 7036 f0be
00000260: 4850 76be 438b 4e3e f52b 463e b189 5f3e
00000270: 0a26 5b3e 71fe abbe 7e57 8bbe 175c 2abd
00000280: f298 fc3d 23e2 49be b7e4 133e d3d8 4bbe
00000290: e2d8 0fbe 5ac8 d1bc 54e5 da3d af35 a7bc
000002a0: dfaa 4b3e 9ed1 7cbe 6c93 48be 9450 933c
000002b0: c112 88be d2fa a63d f7ef a8be b4e2 3dbe
000002c0: 3e4f 1dbe 4ffd 123e 73d4 52bb 28b4 1b3e
000002d0: 2095 c0bd ef6d 2e3e a33c 2abc e502 b1be
000002e0: 75e6 923e 1566 4fbe 1cf8 6e3e 0179 bbbe
000002f0: 88c5 4c3e 7572 003d 6f01 3e3e 41fb 813d
00000300: 25ad 27be 662b 92bd df90 883e 5f0d 683e
00000310: d714 afbe 6434 7fbe 05aa 30bd 5cf1 ddbd
00000320: 74c0 a2be c473 ff3d 186a 08be cd83 cd3e
00000330: 22e2 cbbd b5ae 5fbe c4c1 69be 2d9f 793e
00000340: 7413 223d 17cd a0be 741b bbbe 7054 13bd
00000350: a770 b43d 5b1a 04be c485 153e 29ce 5f3e
00000360: e387 863d b3f8 403d e26c 29be d475 003d
00000370: 7cf9 a0bd 9454 79be 8514 c4be a7ec 92be
00000380: 3a74 833e f10e 2dbe e482 81be 1ed8 49be
00000390: 5254 96be 5bcb 9a3d d8e6 1abe a903 debd
000003a0: 9595 973e e749 99be 4f0a 393e 8c94 563e
000003b0: 41c3 e53c c737 823e de3a ba3e 70d7 073e
000003c0: 42fc 253e 5333 953d 0918 8abe 69d7 563d
000003d0: ad7b 26bd e2a7 28be 5b12 17be 2958 7f3e
000003e0: 9f8f a13e 979d 0abe a07d a5be 0976 95be
000003f0: fb7d b93d 4127 85be 9cff 5d3d f941 2d3e
-0.033970535 0.056181137 -0.14748031 0.02870137 -0.16476195 0.2718249 0.20549154 0.29597202
-0.41511187 -0.03908104 -0.03137301 0.036156774 -0.2134866 0.073876366 0.31104332 -0.3097821
0.067461334 -0.24674596 -0.029965656 0.062856294 -0.24386758 -0.0836941 0.17542098 -0.21499309
0.05501013 0.17180853 -0.35798815 0.026784483 -0.3346443 -0.13250673 0.05112058 -0.0027432288
-0.2655469 -0.099058926 -0.06249503 -0.4224512 0.26558116 0.051944975 -0.009735742 0.36900842
0.30949396 0.0571367 -0.028819643 -0.021422993 -0.22911648 0.16417147 -0.08937732 -0.21532217
0.16264598 -0.25397682 0.072734036 -0.1749251 -0.027888037 -0.37765408 0.0069009434 -0.32544404
0.08949114 -0.0060084523 -0.13361835 -0.20149292 0.2703621 0.055458345 -0.17824918 -0.055673953
0.14361854 -0.25648305 -0.17627133 -0.36677587 0.04470016 0.32061958 -0.35270306 -0.18970542
0.047648948 0.010871364 0.16334201 0.18644662 -0.110520944 -0.10682295 0.33713594 0.08455525
0.06294036 0.25111005 0.25497407 0.35921207 0.20244163 -0.23900169 -0.4859722 0.08646795
-0.29104733 0.16536614 0.13801634 0.13006665 -0.313352 0.2908016 0.1099852 0.074689485
-0.20291051 0.28735283 -0.31130502 0.18010047 -0.039267268 0.09861638 -0.33775046 0.1435087
0.11043331 -0.25867158 -0.2926286 0.20220196 -0.27265206 -0.12767926 0.1849383 0.13560753
-0.03402744 -0.11251029 0.12316093 0.124738045 -0.258466 0.2675727 -0.07501135 0.005334575
-0.09445388 0.09649523 0.028171014 -0.3434616 0.26821214 0.05630141 0.15356033 0.24154472
0.092593856 0.31527758 -0.17272231 -0.13954303 0.35603136 0.021314139 -0.31822553 0.0907539
0.10620857 0.20320207 -0.19947685 -0.27447405 0.26793474 0.33233312 -0.16767278 -0.14775315
0.22112763 -0.19857046 -0.09985826 -0.10948225 -0.31925243 0.24245113 0.117171586 -0.46916533
-0.24054062 0.20170312 0.19352706 0.21829869 0.2140123 -0.3359256 -0.2721519 -0.04159173
0.123338595 -0.1971517 0.14442717 -0.1990693 -0.14047578 -0.02560823 0.10688272 -0.02041134
0.19889401 -0.24689338 -0.19587487 0.017982759 -0.26576808 0.08153309 -0.3299558 -0.18543512
-0.1536226 0.14354442 -0.0032170087 0.15205443 -0.09403443 0.17034124 -0.0103904335 -0.3457252
0.2869145 -0.20253785 0.23336834 -0.36615756 0.19997227 0.031359155 0.18555234 0.06346751
-0.16374643 -0.07137184 0.26673028 0.2266135 -0.34195587 -0.24922329 -0.043130893 -0.10837051
-0.31787455 0.124732524 -0.13321722 0.4013962 -0.09955241 -0.21843989 -0.22827822 0.24377127
0.039569333 -0.3140647 -0.36544383 -0.035969198 0.08810549 -0.12900679 0.14601809 0.21855988
0.06568887 0.047112178 -0.16545442 0.03136237 -0.07860085 -0.2434867 -0.38296905 -0.28696176
0.2567461 -0.16900231 -0.25295174 -0.19711348 -0.29361206 0.07558318 -0.15127122 -0.10840542
0.2960631 -0.29939196 0.18070339 0.20955104 0.028047206 0.2543318 0.36373037 0.13265777
0.1620951 0.0728518 -0.26971462 0.052451525 -0.04064529 -0.16470292 -0.14753096 0.24935974
0.31554887 -0.13536678 -0.32322407 -0.29191616 0.09057232 -0.2600651 0.054198846 0.16919698

sequential_3/dense_9/MatMul_bias f4 [64]
00000000: 237e 423e 4f82 cf3d 01d0 8b3e f824 183e
00000010: b9f5 293d dc7a 013e 8dd7 e43d 5364 f83d
00000020: 3e61 e33d 5caa 8c3e 9c3f a53d 9d63 463d
00000030: 93ad 073e 530c af3d f666 163e 3fd9 3d3e
00000040: 891a 5a3e 077f d3bd 7b8b 0e3e 8382 d43d
00000050: 47ff cd3d a8b4 df3d f061 203e 3042 c33d
00000060: 8051 c13d 2308 843d f56e 8b3c bcfd ad3d
00000070: 2ada 9d3e f4a1 0b3e 7579 673e 6225 013e
00000080: 69ce 043e 1f8d 463d c3c3 133e 15ec ff3d
00000090: a2c8 e93d d256 793c a05e 9a3d b25b 733d
000000a0: 5dee fb3d a8ef 123e c0c9 1c3e b7e0 0c3e
000000b0: 95b7 5f3e c7a2 ad3d 16b7 513e 5852 3d3e
000000c0: 34fd 793d 06e1 5b3e 48c8 ab3d ca35 f33d
000000d0: ff62 193e 4761 123d 3a76 aa3d fd98 2c3e
000000e0: 19cb 393e 00e3 1f3e 9a6f 013e 03af 483e
000000f0: 8e3e 343e ac2f 413e f69c 583e 52e1 f63d
0.1899343 0.10132276 0.27307132 0.14857852 0.041494105 0.12644523 0.111739255 0.1212851
0.11102532 0.27473724 0.08068773 0.048434842 0.13249807 0.085472725 0.14687714 0.18539904
0.21299185 -0.10326963 0.13920395 0.10376456 0.10058456 0.10923129 0.1566236 0.09534109
0.09439373 0.064468645 0.017020682 0.084956616 0.30830508 0.13635999 0.22604926 0.12611917
0.12969364 0.048474427 0.14430146 0.12496201 0.11415221 0.0152184535 0.075375795 0.05941362
0.123013236 0.14349234 0.15311337 0.13757597 0.21847375 0.08478313 0.20479998 0.18488443
0.06103249 0.21472558 0.0838781 0.11875494 0.1497917 0.035737302 0.08323331 0.16855235
0.18143882 0.15613937 0.12640229 0.19598012 0.17601988 0.18865842 0.21153626 0.12054695
